resources/model.pth (torch, 159637 bytes, 189 tensors)

weight f4 [24, 1, 7, 7]
-0.09733484 0.022707876 0.091662146 -0.14139463 -0.13566686 0.122323684 -0.02482587 0.067688905
0.020812664 -0.033391085 -0.16327542 0.11070161 0.032984883 0.010477203 -0.09012615 0.091868296
-0.13050996 -0.16051553 -0.15017216 -0.04024369 0.09383013 0.042270917 0.10241884 -0.007552217
0.00792124 -0.041813344 0.16822219 0.020682283 -0.090451375 0.117426924 -0.07631774 -0.1494008
-0.01361612 0.16148138 -0.03688792 0.02538761 0.09463299 0.051680602 0.09876252 0.04695174
-0.01138515 0.0765869 0.091330096 -0.08352989 0.07157404 0.056111082 -0.016146587 -0.019700931
0.07464343 0.014938031 0.047226265 0.07298853 0.11066171 0.09758329 0.002649092 0.10531408
0.019874519 0.14986965 -0.030275028 0.06651387 0.11969324 0.10656603 -0.026661381 -0.004719442
-0.12186271 -0.0907485 -0.0012575289 -0.11518787 -0.09565109 0.018053375 0.058515135 -0.04488825
0.028509714 0.09071751 0.0995823 -0.12497557 -0.036556993 0.12062649 0.115719885 -0.15765399
0.049092833 0.014469436 0.06637097 -0.0044007213 -0.13439418 0.085153624 -0.11129233 -0.049033307
-0.10523466 0.13615187 0.04982266 -0.06250317 0.052863527 0.023271687 0.14829965 0.14183529
0.04548854 0.08125993 -0.022678135 -0.021275407 0.089424685 0.08635294 -0.04155534 0.0055910274
-0.07322518 -0.026564976 0.14062603 -0.0051309383 -0.06722567 -0.08060593 -0.07881361 0.1280303
-0.051676568 -0.02164837 -0.03621669 -0.0467243 0.09463881 -0.053390335 0.100458056 0.07821751
0.04929947 -0.08186881 -0.17393619 -0.1350583 -0.04845354 0.14169604 -0.015038418 -0.10127966
-0.107530974 0.046800602 -0.13119325 -0.108449206 0.12710714 0.14721467 -0.007330756 0.12996495
-0.14178464 -0.06290981 -0.09756971 0.15505238 0.12900656 0.017925017 0.112300575 0.040088534
0.11826686 0.122748554 0.06412987 -0.17033526 -0.1923615 -0.13020296 -0.1047959 -0.046601593
0.03990565 -0.046737652 0.101556115 0.09544172 -0.024599493 0.13286929 -0.102196656 -0.08648187
-0.011804761 0.025205458 -0.04921212 -0.09002547 -0.027733454 0.068666354 0.037524164 0.04588387
-0.16830906 0.12156111 0.083825335 -0.060783565 0.07779913 0.046905823 0.028840441 -0.110307455
-0.13000305 -0.00850228 -0.13000727 -0.042519514 -0.114282094 -0.081357 0.089811705 0.012631488
0.09321783 -0.0011641954 -0.00028837996 -0.017209334 -0.018598586 0.07607316 0.12152265 -0.062410824
0.12768802 -0.08281882 0.042421043 -0.03522322 -0.06883575 0.039633732 -0.08541041 0.12872186
-0.03491975 0.061853994 -0.08497267 0.112246655 -0.0749246 0.10509314 0.10259709 -0.10278486
-0.012081694 -0.23649879 -0.07147562 -0.08656657 -0.08184471 -0.072383605 -0.14798948 0.09175469
0.009701667 0.14761546 0.0081347665 -0.07947632 -0.00062405894 0.095938 0.07204588 -0.08332968
-0.043310985 0.05119641 0.0039342633 -0.064018644 0.098373204 -0.15175073 0.0042972676 -0.069363
0.14799313 -0.047334295 -0.09520877 0.12099523 0.06941338 0.0021386794 0.009655111 0.12657401
-0.13247721 0.07294652 -0.15853044 -0.12111097 0.045738682 -0.15139689 -0.062424626 -0.12461109
0.023678822 0.0976827 0.0064573227 0.10909453 -0.11414353 0.09804953 0.09519958 -0.10124529
00000000: 7d57 c7bd de05 ba3c 5db9 bb3d c1c9 10be
00000010: 41ec 0abe d784 fa3d 9f5f cbbc 7ba0 8a3d
00000020: 527f aa3c 17c5 08bd ac31 27be 87b7 e23d
00000030: 281b 073d 93a8 2b3c 0f94 b8bd 7225 bc3d
00000040: 67a4 05be 2f5e 24be bbc6 19be 91d6 24bd
00000050: 032a c03d 4524 2d3d f8c0 d13d 9778 f7bb
00000060: 17c8 013c 7844 2bbd 7042 2c3e e46d a93c
00000070: 923e b9bd 877d f03d 7a4c 9cbd 86fc 18be
00000080: 2616 5fbc 605b 253e ca17 17bd adf9 cf3c
00000090: f1ce c13d 0aaf 533d 0144 ca3d 7850 403d
000000a0: c888 3abc 98d9 9c3d 460b bb3d b811 abbd
000000b0: 6995 923d bcd4 653d d945 84bc d963 a1bc
000000c0: a8de 983d a5be 743c 5470 413d 037b 953d
000000d0: 9ba2 e23d bfd9 c73d 649c 2d3b e9ae d73d
000000e0: e3cf a23c 6e77 193e 5603 f8bc 6d38 883d
000000f0: bb21 f53d 4a3f da3d f868 dabc 8da5 9abb
00000100: 2893 f9bd 59da b9bd abd3 a4ba 9ee7 ebbd
00000110: b8e4 c3bd ace4 933c 91ad 6f3d bedc 37bd
00000120: 348d e93c 1aca b93d cef1 cb3d 31f3 ffbd
00000130: c9bc 15bd 050b f73d 8cfe ec3d 0c70 21be
00000140: 9115 493d 3711 6d3c 81ed 873d ed33 90bb
00000150: a19e 09be 0665 ae3d 3ced e3bd 26d7 48bd
00000160: 4585 d7bd 656b 0b3e d812 4c3d a901 80bd
00000170: 6d87 583d 44a4 be3c dddb 173e 453d 113e
00000180: 3152 3a3d 9b6b a63d 7fc7 b9bc c349 aebc
00000190: 4a24 b73d cfd9 b03d ef35 2abd f034 b73b
000001a0: 15f7 95bd cb9e d9bc 4500 103e 6e21 a8bb
000001b0: 9dad 89bd b914 a5bd 0869 a1bd 601a 033e
000001c0: cfaa 53bd ec57 b1bc f457 14bd fb61 3fbd
000001d0: fed1 c13d d3af 5abd f4bc cd3d 8030 a03d
000001e0: 3eee 493d d6aa a7bd 541c 32be b94c 0abe
000001f0: 3877 46bd c418 113e b263 76bc b66b cfbd
00000200: 3339 dcbd fdb1 3f3d 8657 06be 9e1a debd
00000210: 6028 023e 71bf 163e d736 f0bb 8815 053e
00000220: fe2f 11be dcd6 80bd a1d2 c7bd 0dc6 1e3e
00000230: 4c1a 043e 7cd7 923c d8fd e53d e033 243d
00000240: e535 f23d 9863 fb3d 8556 833d 5e6c 2ebe
00000250: 6afa 44be ed53 05be 3c9f d6bd 50e1 3ebd
00000260: 1b74 233d fb6f 3fbd a7fc cf3d f376 c33d
00000270: e084 c9bc e30e 083e 7b4c d1bd 681d b1bd
00000280: c268 41bc ad7b ce3c a692 49bd 465f b8bd
00000290: 4531 e3bc f2a0 8c3d f0b2 193d baf0 3b3d
000002a0: 3659 2cbe 08f5 f83d 9eac ab3d 30f8 78bd
000002b0: 2655 9f3d 5220 403d ca42 ec3c e0e8 e1bd
000002c0: 851f 05be 264d 0bbc a020 05be f128 2ebd
000002d0: bb0c eabd 809e a6bd 33ef b73d 4df4 4e3c
000002e0: fde8 be3d ea97 98ba b431 97b9 97fa 8cbc
000002f0: 105c 98bc 3fcc 9b3d dee0 f83d 7ea2 7fbd
00000300: a6c0 023e ea9c a9bd b0c1 2d3d 3946 10bd
00000310: c2f9 8cbd fb56 223d a7eb aebd aacf 033e
00000320: 0308 0fbd 9d5a 7d3d 2706 aebd 93e1 e53d
00000330: 1272 99bd 123b d73d 6c1e d23d de80 d2bd
00000340: 4cf2 45bc bd2c 72be cf61 92bd d049 b1bd
00000350: 339e a7bd db3d 94bd 8e8a 17be e2e9 bb3d
00000360: bef3 1e3c 8228 173e af47 053c 7bc4 a2bd
00000370: e397 23ba 247b c43d ca8c 933d c0a8 aabd
00000380: dc66 31bd 54b3 513d feea 803b 351c 83bd
00000390: e477 c93d 8b64 1bbe 18d0 8c3b 300e 8ebd
000003a0: 838b 173e 9be1 41bd d1fc c2bd 59cc f73d
000003b0: 9a28 8e3d 1629 0c3b 7830 1e3c 9e9c 013e
000003c0: 1ba8 07be fc64 953d ce55 22be 0709 f8bd
000003d0: 7c58 3b3d c907 1bbe f7b0 7fbd 1934 ffbd
000003e0: 17fa c13c de0d c83d f397 d33b f46c df3d
000003f0: 15c4 e9bd 31ce c83d fff7 c23d b159 cfbd

bias f4 [24]
-0.106524825 0.052693237 -0.09419694 0.15458745 -0.029900778 0.12941065 0.1273955 0.0355662
-0.11762597 0.13491248 0.11182099 -0.0878039 -0.011214289 -0.0025155472 0.021066906 0.1572644
0.04772708 -0.15015785 0.0333629 0.14030583 0.061751705 0.112503946 -0.06459989 -0.075840294
00000000: b029 dabd ddd4 573d 53ea c0bd 2c4c 1e3e
00000010: 7af2 f4bc 3a84 043e f773 023e ddad 113d
00000020: e2e5 f0bd 7f26 0a3e 6702 e53d 88d2 b3bd
00000030: 23bc 37bc e1db 24bb 8194 ac3c eb09 213e
00000040: 787d 433d fbc2 19be 89a7 083d 55ac 0f3e
00000050: 5bef 7c3d 7868 e63d f24c 84bd 2852 9bbd

weight f4 [24]
0.97146165 0.9915839 0.9962875 0.9453279 1.0028515 0.9998372 0.96250033 0.9463079
0.97631496 1.0236797 1.0975393 0.9699097 1.0547036 0.9992229 0.993863 1.0284635
1.0106796 1.0000381 1.024761 1.0059409 1.0617223 0.9679739 1.0421821 1.0316969
00000000: b6b1 783f 71d8 7d3f b30c 7f3f 0201 723f
00000010: 705d 803f 55f5 7f3f 6c66 763f 3c41 723f
00000020: c7ef 793f f007 833f 2b7c 8c3f 014c 783f
00000030: 8700 873f 12cd 7f3f ce6d 7e3f b1a4 833f
00000040: f35d 813f 4001 803f 5e2b 833f acc2 803f
00000050: 84e6 873f 23cd 773f 3966 853f a50e 843f

bias f4 [24]
-0.044436432 0.026386475 0.012179957 0.056744233 0.029785832 0.038009264 -0.009898354 0.006038025
-0.045533936 0.030440047 -0.001324479 -0.04486908 -0.010942104 -0.0056869755 -0.001851666 0.0014413901
-0.057640087 0.026846142 -0.008018823 -0.00095664535 -0.019022131 0.038241073 0.021874592 0.003988113
00000000: fa02 36bd 7328 d83c 718e 473c a46c 683d
00000010: 6b01 f43c 9aaf 1b3d b52c 22bc a0da c53b
00000020: cb81 3abd 685d f93c 249a adba a4c8 37bd
00000030: 8346 33bc cf59 babb 9ab3 f2ba 07ed bc3a
00000040: 0318 6cbd 71ec db3c 6261 03bc 62c7 7aba
00000050: 4dd4 9bbc aca2 1c3d 5832 b33c b7ae 823b

running_mean f4 [24]
-0.09507115 0.107418664 -0.082678266 0.11464929 -0.056282297 0.13935006 0.13316455 -0.0005484281
-0.08315421 0.13545197 0.0056585562 -0.015098246 -0.07079107 -0.013841844 0.056134686 0.026919542
0.07704549 -0.20026636 -0.017091922 0.15261862 -0.009204813 0.091803744 -0.14534913 -0.084940344
00000000: aab4 c2bd 51fe db3d 3953 a9bd 3fcd ea3d
00000010: 4488 66bd c8b1 0e3e 4a5c 083e 63c4 0fba
00000020: c14c aabd ecb3 0a3e 696b b93b a25e 77bc
00000030: e9fa 90bd e7c8 62bc 7ced 653d 5f86 dc3c
00000040: 07ca 9d3d a012 4dbe 5c04 8cbc 0e48 1c3e
00000050: c9cf 16bc 9a03 bc3d 67d6 14be 34f5 adbd

running_var f4 [24]
0.17222674 0.35718948 0.22549206 0.31866014 0.13190216 0.15059409 0.18299781 0.16876467
0.22210109 0.18844381 0.939103 0.4257234 0.39523152 0.40104443 0.27185667 1.2770464
0.12536126 0.37681857 0.42812556 0.18990003 0.35650733 0.16221677 0.50731987 0.2249371
00000000: 355c 303e 8ae1 b63e 64e7 663e 6c27 a33e
00000010: 5c11 073e 5635 1a3e c763 3b3e a5d0 2c3e
00000020: 786e 633e 6af7 403e 0e69 703f 6bf8 d93e
00000030: c95b ca3e b255 cd3e cc30 8b3e 4276 a33f
00000040: b45e 003e 5dee c03e 4633 db3e 2775 423e
00000050: 2188 b63e 271c 263e b7df 013f e955 663e

weight f4 [12, 24, 1, 1]
0.016144406 0.056642246 -0.015049572 0.056020357 -0.08217933 -0.11617535 0.12796178 0.16721018
0.18402454 0.118868925 -0.117460005 -0.18172465 0.02268006 -0.027628249 -0.03292393 0.004000381
0.23431346 -0.032174606 -0.123110645 0.15021758 0.19592825 -0.04857496 0.019990781 -0.19651157
0.1062629 0.16930264 -0.18319026 -0.09246233 0.14213765 -0.014619686 0.099142596 -0.14546666
-0.04736208 -0.07154974 0.10795874 -0.033153236 -0.093215086 0.038982168 0.08813487 0.0072561135
0.063011006 -0.1528562 -0.15107322 0.019236298 -0.07552058 -0.07844067 -0.0064285262 -0.21068983
-0.0320324 0.21496223 0.2056526 0.22710034 0.06341172 0.20473978 -0.009756235 0.017453562
0.16465767 -0.06373769 0.1318377 -0.15826198 -0.13859892 -0.06502009 -0.1335518 0.12125962
0.018634666 0.06537504 -0.007348416 -0.09027835 0.18068211 -0.017507503 0.23303004 -0.103503376
-0.15453713 -0.1301343 0.06825243 0.06092118 0.028637107 -0.17540273 -0.05317188 -0.1958749
0.15875559 -0.19998911 -0.10153249 -0.034717385 0.12008813 -0.117023505 -0.15265465 0.1464315
-0.07867242 0.17745842 0.18684627 0.011918774 0.26333937 -0.13300759 0.18697576 0.17156437
-0.15748931 0.055734087 0.08707023 0.14505522 0.20092794 0.009751458 0.1908475 -0.14778167
-0.030723155 0.21861626 -0.1424706 0.08928507 0.21602169 0.15738887 0.059693176 0.08585129
-0.009532442 0.009716216 0.0144778155 -0.07874145 -0.23185661 0.18655942 0.07921923 -0.17258295
0.15985018 -0.13718112 -0.09121869 -0.071052834 0.0012134779 0.20255205 0.009671759 -0.100453876
-0.15678218 0.14825416 -0.12641083 0.08564296 0.05063227 -0.083994046 0.20409313 -0.044961
-0.095103055 -0.3060008 0.16448279 0.0030855262 -0.12649928 -0.026940726 0.11838897 0.027098052
-0.10072507 0.084013075 -0.15805827 0.10154793 0.014517091 0.110813394 -0.11042727 0.113042235
0.19988863 0.18165652 0.13684049 0.17623644 0.1745355 -0.20011069 -0.1815845 -0.063112
0.19278884 -0.11972331 0.07266628 -0.03384377 0.2105013 0.15032867 0.22293414 -0.017010031
0.12079718 -0.031181004 -0.16794966 -0.055989273 -0.042955786 0.16775642 0.082944304 0.13509253
0.064440034 -0.09665769 0.0819095 -0.13105775 -0.10409789 -0.03967937 -0.04763805 0.01891718
0.04397588 0.08272995 -0.037958205 0.14200392 -0.14542839 0.11571528 0.09448251 0.022538882
-0.06541794 0.08109737 -0.116697825 0.091139756 -0.122264266 0.14245778 0.019236745 -0.08421389
-0.07456318 0.20343657 0.06428844 0.13551885 0.09461347 -0.056174327 0.15930334 0.07698163
0.06590141 0.08539377 -0.10961518 -0.06630563 -0.09434941 -0.008314989 -0.2580873 0.09452507
-0.17163303 0.08374078 0.009975047 0.04401794 -0.18421195 0.13861535 -0.10293669 -0.021518508
-0.023728287 0.12982574 0.22634265 -0.15639141 0.14763322 0.009695499 -0.13146247 0.13710047
-0.07192431 -0.13362846 -0.07068195 -0.03404539 0.13596565 -0.07953674 0.20895009 -0.21100596
-0.0077591604 -0.16947237 0.079570286 0.19869319 0.14950679 0.0792584 -0.17598599 0.04950368
0.1318302 0.18222933 -0.114304624 0.067644954 -0.13838576 -0.10607634 0.21963072 -0.18722647
00000000: 4641 843c b301 683d 7b92 76bc 9a75 653d
00000010: a34d a8bd 58ed edbd 6a08 033e 2539 2b3e
00000020: ee70 3c3e 8d71 f33d df8e f0bd 0716 3abe
00000030: 88cb b93c a354 e2bc 3edb 06bd a115 833b
00000040: deef 6f3e 85c9 03bd 6f21 fcbd a3d2 193e
00000050: 6aa1 483e 8af6 46bd b5c3 a33c 543a 49be
00000060: 5da0 d93d ac5d 2d3e 3a96 3bbe e45c bdbd
00000070: 888c 113e 6887 6fbc 460b cb3d 36f5 14be
00000080: befe 41bd ac88 92bd 7919 dd3d b0cb 07bd
00000090: 8de7 bebd c4ab 1f3d 0e80 b43d b1c4 ed3b
000000a0: ea0b 813d 5686 1cbe f0b2 1abe 7195 9d3c
000000b0: 89aa 9abd 81a5 a0bd 63a6 d2bb 13bf 57be
000000c0: 6834 03bd 0f1f 5c3e 9896 523e fe8c 683e
000000d0: 01de 813d 4ea7 513e 9ed8 1fbc c6fa 8e3c
000000e0: 059c 283e e888 82bd 7600 073e 6e0f 22be
000000f0: e0ec 0dbe 4129 85bd cec1 08be f756 f83d
00000100: baa7 983c 59e3 853d fbca f0bb dbe3 b8bd
00000110: bb04 393e e56b 8fbc 6d9f 6e3e 94f9 d3bd
00000120: fb3e 1ebe ed41 05be eec7 8b3d 7d88 793d
00000130: 5e98 ea3c c69c 33be c2ca 59bd 6e93 48be
00000140: d390 223e f2c9 4cbe 44f0 cfbd d133 0ebd
00000150: c4f0 f53d 05aa efbd 8051 1cbe 24f2 153e
00000160: 011f a1bd a9b7 353e a154 3f3e f646 433c
00000170: 6bd4 863e 2433 08be 9376 3f3e 92ae 2f3e
00000180: e144 21be 6d49 643d e051 b23d 5b89 143e
00000190: 0ec0 4d3e 94c4 1f3c 876d 433e 1454 17be
000001a0: 20af fbbc f1dc 5f3e d0e3 11be 17db b63d
000001b0: ca34 5d3e 8c2a 213e d580 743d cdd2 af3d
000001c0: f62d 1cbc c330 1f3c 5c34 6d3c 3343 a1bd
000001d0: d26b 6dbe 6f09 3f3e b13d a23d 96b9 30be
000001e0: c4af 233e 3579 0cbe ddd0 babd 2684 91bd
000001f0: 900d 9f3a ce69 4f3e 4c76 1e3c c3ba cdbd
00000200: 828b 20be f0cf 173e d771 01be 9465 af3d
00000210: c863 4f3d 1205 acbd cafd 503e 0729 38bd
00000220: 64c5 c2bd 23ac 9cbe 2d6e 283e 8a36 4a3b
00000230: 0789 01be ccb2 dcbc eb75 f23d bcfc dd3c
00000240: f248 cebd 0c0f ac3d 07da 21be 5cf8 cf3d
00000250: 18d9 6d3c 22f2 e23d b127 e2bd b082 e73d
00000260: 9baf 4c3e 2b04 3a3e ea1f 0c3e 5377 343e
00000270: 6fb9 323e d1e9 4cbe 4af1 39be dd40 81bd
00000280: 706a 453e 7f31 f5bd 0fd2 943d c49f 0abd
00000290: a78d 573e c2ef 193e d948 643e 9f58 8bbc
000002a0: 8364 f73d 4e6f ffbc fffa 2bbe 0255 65bd
000002b0: 68f2 2fbd 57c8 2b3e b4de a93d b255 0a3e
000002c0: 23f9 833d 78f4 c5bd 2bc0 a73d 0134 06be
000002d0: 4631 d5bd d686 22bd 1e20 43bd 34f8 9a3c
000002e0: 0d20 343d 526e a93d 107a 1bbd 7a69 113e
000002f0: 2eeb 14be 22fc ec3d 0c80 c13d 76a3 b83c
00000300: d7f9 85bd 6116 a63d 45ff eebd 7ba7 ba3d
00000310: b065 fabd 74e0 113e 6196 9d3c 5578 acbd
00000320: 95b4 98bd ad51 503e a8a9 833d 74c5 0a3e
00000330: b5c4 c13d 0d17 66bd 6a20 233e 8ba8 9d3d
00000340: 52f7 863d eee2 ae3d ec7d e0bd 3fcb 87bd
00000350: 433a c1bd 973b 08bc 0524 84be 5c96 c13d
00000360: 92c0 2fbe 4980 ab3d 616e 233c 284c 343d
00000370: 0fa2 3cbe 2ff1 0d3e 79d0 d2bd 9547 b0bc
00000380: d361 c2bc 0af1 043e 5ec6 673e 1225 20be
00000390: 2a2d 173e dfd9 1e3c 199e 06be 1164 0c3e
000003a0: 0d4d 93bd e6d5 08be b3c1 90bd 2e73 0bbd
000003b0: 943a 0b3e 29e4 a2bd 03f7 553e f211 58be
000003c0: 8e40 febb 2a8a 2dbe bff5 a23d 3a76 4b3e
000003d0: 4f18 193e 3a52 a23d ac35 34be 5fc4 4a3d
000003e0: 7ffe 063e 539a 3a3e 8b18 eabd 7089 8a3d
000003f0: ffb4 0dbe 8d3e d9bd e0e6 603e 4cb8 3fbe

bias f4 [12]
0.20675379 -0.0078400215 0.010248461 0.23978251 -0.058719523 -0.18349068 0.11574511 -0.10912791
0.045310307 0.12126597 -0.18954442 -0.1092548
00000000: 44b7 533e 6f73 00bc 29e9 273c 8c89 753e
00000010: e283 70bd fbe4 3bbe c60b ed3d 747e dfbd
00000020: 4d97 393d 4b5a f83d ef17 42be fbc0 dfbd

weight f4 [12]
1.0241764 0.92589766 0.9839805 1.0216705 0.9958378 0.96709543 0.9134153 1.0299444
0.98048925 1.1018219 1.0084789 1.0164616
00000000: 3618 833f a107 6d3f 25e6 7b3f 19c6 823f
00000010: 3aef 7e3f 9193 773f 96d5 693f 38d5 833f
00000020: 5801 7b3f 8008 8d3f d615 813f 6a1b 823f

bias f4 [12]
0.006154373 0.0059670187 -0.05975671 0.00017625674 0.013831873 0.14172208 -0.035526183 0.0035284997
0.029979698 -0.0006326293 -0.021044662 0.026582586
00000000: 9faa c93b fb86 c33b 74c3 74bd 8fd1 3839
00000010: 159f 623c 981f 113e e783 11bd 673e 673b
00000020: fc97 f53c 09d7 25ba db65 acbc b9c3 d93c

running_mean f4 [12]
0.23369862 -0.05632668 0.13106945 0.26470828 0.023225846 -0.21513078 0.25523916 -0.084246986
0.06818255 0.13418877 -0.18330038 -0.13714476
00000000: b14e 6f3e ceb6 66bd 1237 063e d887 873e
00000010: 2144 be3c 3e4b 5cbe b5ae 823e af89 acbd
00000020: 4ba3 8b3d c868 093e 18b3 3bbe ad6f 0cbe

running_var f4 [12]
0.14243409 0.08849008 0.1426863 0.22690697 0.16494203 0.12931895 0.25898182 0.05927307
0.15155865 0.18611652 0.1485683 0.056523457
00000000: 3eda 113e 493a b53d 5c1c 123e 4d5a 683e
00000010: 90e6 283e 306c 043e 4499 843e 52c8 723d
00000020: 3132 1b3e 5495 3e3e 4a22 183e 2485 673d

weight f4 [12, 1, 3, 1]
0.21244851 0.5917191 0.39804944 -0.46470878 -0.06727624 -0.15929133 0.10432197 -0.20774722
0.6071906 0.32550517 -0.14491211 0.33457968 0.53649956 0.35763317 0.13016403 0.35413498
0.37778142 0.56006956 -0.110417925 -0.42385903 -0.024893748 0.30950645 0.55255437 0.05297888
0.08976827 0.07989435 -0.55196387 -0.49662995 -0.15878506 0.4743764 0.21296829 0.13897572
0.31119072 0.45757645 0.065016806 0.14576605
00000000: 1a8c 593e e77a 173f 23cd cb3e 4fee edbe
00000010: 20c8 89bd 441d 23be c2a6 d53d b0bb 54be
00000020: d870 1b3f 9da8 a63e d763 14be 074e ab3e
00000030: 0958 093f b21b b73e b849 053e 2e51 b53e
00000040: 916c c13e b860 0f3f cb22 e2bd 0d04 d9be
00000050: f9ed cbbc a177 9e3e 3474 0d3f 6200 593d
00000060: 6dd8 b73d a69f a33d 814d 0dbf 4846 febe
00000070: 8d98 22be 77e1 f23e 5c14 5a3e a74f 0e3e
00000080: 6454 9f3e 7647 ea3e 8827 853d b243 153e

bias f4 [12]
-0.15041561 0.24961236 -0.26139894 -0.27247274 -0.07093954 0.39218998 -0.39087912 -0.33296585
-0.05688618 -0.35204768 0.05717977 0.21239817
00000000: 8d06 1abe 629a 7f3e 15d6 85be 8c81 8bbe
00000010: c048 91bd 20cd c83e 4f21 c8be 807a aabe
00000020: 7c01 69bd 983f b4be 5635 6a3d e87e 593e

weight f4 [12]
1.0128891 0.9930323 0.97057414 0.98704875 1.0210073 1.1062247 1.0822256 0.9257653
1.0189344 1.0379313 1.0236499 0.9945935
00000000: 5aa6 813f 5d37 7e3f 8c77 783f 3aaf 7c3f
00000010: 5eb0 823f c598 8d3f 5e86 8a3f f4fe 6c3f
00000020: 716c 823f efda 843f f606 833f ae9d 7e3f

bias f4 [12]
-0.008275382 0.006112816 0.0030915602 0.07323471 -0.052567028 0.02368587 0.07137699 0.020236421
0.013476167 0.05474723 -0.043076202 0.0399193
00000000: 7895 07bc 044e c83b c69b 4a3b 14fc 953d
00000010: 8650 57bd df08 c23c 192e 923d dac6 a53c
00000020: 24cb 5c3c a23e 603d ac70 30bd 6b82 233d

running_mean f4 [12]
0.011743447 0.12821886 -0.085338205 -0.09737334 0.045238942 0.40713102 -0.15956235 -0.08823929
-0.029506948 -0.15085258 0.08116958 0.1643589
00000000: 9667 403c ce4b 033e ccc5 aebd ac6b c7bd
00000010: 784c 393d 7a73 d03e 5064 23be cdb6 b4bd
00000020: 8eb8 f1bc 1979 1abe 3d3c a63d b34d 283e

running_var f4 [12]
0.87514085 0.0024682921 0.24025406 0.0028943093 0.6468914 0.6447751 0.00022264765 0.4298133
0.004207508 0.0011214502 0.24794342 0.052193187
00000000: 3b09 603f 12c3 213b 2905 763e 74ae 3d3b
00000010: ad9a 253f fb0f 253f 8676 6939 7d10 dc3e
00000020: 23df 893b a0fd 923a e1e4 7d3e 86c8 553d

weight f4 [12, 1, 1, 3]
0.2099054 -0.39470592 -0.03466839 -0.55953276 -0.059277304 0.45194516 0.16285555 0.17896758
-0.07467503 0.13595949 -0.53708935 -0.18249127 0.0932581 -0.41173902 0.12546779 0.22748801
-0.22571267 -0.007966616 -0.010544603 -0.5660547 0.40969297 -0.30429283 -0.5324875 -0.22129466
-0.3661474 0.524894 -0.52665114 0.33485088 0.030160869 0.23531389 0.5134085 0.39824253
0.24589978 0.014645609 -0.53493017 -0.39122042
00000000: 71f1 563e e516 cabe 7100 0ebd 8a3d 0fbf
00000010: c2cc 72bd 5b65 e73e 9bc3 263e 4743 373e
00000020: 39ef 98bd f738 0b3e b07e 09bf fede 3abe
00000030: 1afe be3d 75cf d2be a17a 003e 9ef2 683e
00000040: 3921 67be 6986 02bc 45c3 2cbc f6e8 10bf
00000050: 47c3 d13e 45cc 9bbe 1a51 08bf 119b 62be
00000060: ac77 bbbe 745f 063f 9cd2 06bf 9371 ab3e
00000070: ed13 f73c 20f6 703e bd6e 033f 72e6 cb3e
00000080: 27cd 7b3e 23f4 6f3c 2ff1 08bf 0b4e c8be

weight f4 [12]
1.0164014 0.956178 0.9909323 0.93486935 0.9320944 1.0492224 0.916055 1.0017562
1.0095589 0.98582715 1.0285559 0.99819237
00000000: 7119 823f 15c8 743f bdad 7d3f 9953 6f3f
00000010: bd9d 6e3f eb4c 863f 9582 6a3f 8c39 803f
00000020: 3a39 813f 2b5f 7c3f b8a7 833f 8989 7f3f

bias f4 [12]
0.0015265034 -0.010716715 0.032865576 0.0464818 -0.033431426 0.011453156 -0.011580819 -0.027413381
-0.016005876 -0.07520557 -0.03460933 -0.05743116
00000000: f414 c83a 2995 2fbc 0e9e 063d b363 3e3d
00000010: 64ef 08bd 05a6 3b3c 7abd 3dbc 0792 e0bc
00000020: c11e 83bc 6105 9abd 83c2 0dbd f03c 6bbd

running_mean f4 [12]
0.0037301655 0.004277419 0.0023228636 -0.016812969 0.0075599845 0.00041225945 -0.0032529247 0.012635427
0.00018851286 0.018960977 0.01828705 -0.0053057997
00000000: cb75 743b 9729 8c3b 2f3b 183b 5abb 89bc
00000010: bfb9 f73b 8724 d839 052f 55bb d204 4f3c
00000020: 89ab 4539 0d54 9b3c b9ce 953c 46dc adbb

running_var f4 [12]
0.0010441346 0.006905637 0.004753163 0.0009254544 0.0010197973 0.00040671026 0.0041696206 0.002682012
0.0015841533 0.010366728 0.30696058 0.0017101434
00000000: 58db 883a af48 e23b 6cc0 9b3b 329a 723a
00000010: b8aa 853a ba3b d539 50a1 883b b2c4 2f3b
00000020: 5da3 cf3a 35d9 293c f029 9d3e e426 e03a

weight f4 [12, 12, 1, 1]
-0.16874664 0.010476089 -0.031427335 -0.26062796 0.19575687 0.24025792 -0.1287326 0.10951112
-0.011994501 0.06302308 0.2525457 0.01501728 -0.25846714 0.2453682 0.10520089 0.11061708
0.1752797 0.3366006 0.1566375 -0.043346897 0.20323043 0.18834636 0.2955647 0.08036388
-0.27483782 -0.24173889 0.1667271 -0.13757527 0.24727143 -0.1609364 0.23216261 -0.26913017
0.051777966 -0.041165978 0.20053734 0.08800554 -0.16020009 -0.22478968 0.12910193 -0.22768821
-0.012643936 0.23602067 -0.17791824 -0.20171914 -0.18114755 0.092217036 -0.21093631 0.32104132
-0.11859333 -0.20636941 0.041221492 -0.17503248 0.07577951 -0.047166847 -0.12966107 -0.10865615
-0.2093369 0.176216 0.2515856 0.17384745 -0.015904708 -0.082110725 0.2053222 0.27078336
-0.21789774 0.07090931 -0.07362705 0.24890834 0.2863906 0.07987583 -0.080767624 -0.2541557
0.06508996 -0.013114245 0.26203993 -0.054574743 -0.19083264 0.25014755 0.10005679 0.014026145
-0.104003854 -0.17652732 -0.24718155 -0.19118136 0.2322676 -0.07250253 -0.22566713 -0.11201858
0.20983645 0.103584185 0.12470363 0.21398926 0.09623798 0.11883313 0.28735235 -0.11650435
-0.32331878 -0.0006919153 -0.078147285 -0.12609488 -0.0012042047 -0.17807405 -0.008950909 -0.023652008
-0.16252784 -0.101916686 -0.11655851 0.029444791 -0.018405639 -0.05762235 -0.20995888 0.19035366
-0.0043158256 -0.07889182 -0.05764176 -0.10029044 -0.02291938 -0.158553 -0.045399394 0.013653435
0.018146986 0.2333387 -0.107818425 0.036124475 -0.077420354 0.29554483 0.18649408 -0.23986423
0.015709221 0.005587026 -0.07494162 -0.14036605 -0.19440323 -0.009380526 0.21819295 0.20373988
0.10320914 -0.26593176 -0.1902552 -0.33261302 -0.19725348 -0.11280992 0.028596975 -0.23036842
00000000: ebcb 2cbe e7a3 2b3c f3b9 00bd 0771 85be
00000010: 7d74 483e 2c06 763e 7bd2 03be 5e47 e03d
00000020: 9584 44bc 3f12 813d ac4d 813e 0a0b 763c
00000030: ce55 84be cd41 7b3e 9073 d73d 358b e23d
00000040: 867c 333e ea56 ac3e 9565 203e 848c 31bd
00000050: a31b 503e dedd 403e 4254 973e d195 a43d
00000060: 8bb7 8cbe 668a 77be 82ba 2a3e 88e0 0cbe
00000070: b934 7d3e 83cc 24be 09bc 6d3e 6ecb 89be
00000080: 2215 543d a89d 28bd a959 4d3e 403c b43d
00000090: 7e0b 24be 442f 66be 4c33 043e 1927 69be
000000a0: 8328 4fbc 67af 713e 3330 36be 768f 4ebe
000000b0: be7e 39be 49dc bc3d b0ff 57be 875f a43e
000000c0: 0fe1 f2bd 8152 53be ded7 283d b73b 33be
000000d0: 4a32 9b3d 0632 41bd dfc5 04be 1e87 debd
000000e0: 6a5c 56be f871 343e d4cf 803e 1105 323e
000000f0: 974a 82bc ab29 a8bd fc3f 523e 1ea4 8a3e
00000100: 9620 5fbe e638 913d c7c9 96bd d4e1 7e3e
00000110: caa1 923e f095 a33d 7f69 a5bd b220 82be
00000120: e34d 853d 21dd 56bc 192a 863e c489 5fbd
00000130: a269 43be 5713 803e 93ea cc3d ebcd 653c
00000140: f9ff d4bd 94c3 34be 291d 7dbe 0cc5 43be
00000150: 8fd7 6d3e 357c 94bd 4915 67be ff69 e5bd
00000160: 5edf 563e f223 d43d 9e64 ff3d 0020 5b3e
00000170: 6b18 c53d c95e f33d d91f 933e d599 eebd
00000180: 0a8a a5be a661 35ba af0b a0bd 041f 01be
00000190: 68d6 9dba 0b59 36be d5a6 12bc dbc1 c1bc
000001a0: b36d 26be b2b9 d0bd 3ab6 eebd 3436 f13c
000001b0: 6cc7 96bc 6a05 6cbd 76ff 56be 12ec 423e
000001c0: c56b 8dbb 0992 a1bd c419 6cbd 1365 cdbd
000001d0: 6cc1 bbbc b85b 22be b7f4 39bd a8b2 5f3c
000001e0: fda8 943c 57f0 6e3e e8cf dcbd 42f7 133d
000001f0: 908e 9ebd a751 973e 4ef8 3e3e f89e 75be
00000200: a0b0 803c 5f13 b73b fe7a 99bd 1ebc 0fbe
00000210: a411 47be c7b0 19bc f96d 5f3e 30a1 503e
00000220: 505f d33d 3528 88be 42d2 42be 414c aabe
00000230: d1fc 49be e308 e7bd 3444 ea3c b3e5 6bbe

bias f4 [12]
-0.13186459 -0.09127347 -0.11054743 0.18139715 -0.114105344 -0.049401343 -0.06580303 -0.2715511
-0.1507837 0.11088594 -0.24231544 0.04279658
00000000: 8307 07be 96ed babd b166 e2bd 2dc0 393e
00000010: 10b0 e9bd 1059 4abd bdc3 86bd bf08 8bbe
00000020: 0b67 1abe 2b18 e33d 8a21 78be 774b 2f3d

weight f4 [12, 1, 3, 1]
0.011848862 -0.47361326 -0.3999224 0.5321809 -0.42073134 0.2752337 0.29894963 -0.54007673
-0.4579072 0.54960054 0.20365322 0.29238814 0.2718507 -0.06092807 -0.39241064 -0.170074
0.46386695 0.2368441 0.49245423 -0.25669792 0.47217292 -0.36247623 0.19498119 -0.49756426
0.05387815 0.06016251 0.2413507 -0.45498553 -0.078440376 0.010100119 -0.4685144 -0.11026387
-0.028536899 0.26904812 -0.11836431 0.15204182
00000000: bb21 423c 707d f2be a1c2 ccbe 023d 083f
00000010: 196a d7be 6eeb 8c3e ed0f 993e 7842 0abf
00000020: d072 eabe 9fb2 0c3f 788a 503e e6b3 953e
00000030: 0430 8b3e b68f 79bd 0cea c8be e127 2ebe
00000040: f87f ed3e 4287 723e f622 fc3e e96d 83be
00000050: a6c0 f13e 7c96 b9be 26a9 473e bec0 febe
00000060: 56af 5c3d f76c 763d a324 773e ddf3 e8be
00000070: 59a5 a0bd f87a 253c 1fe1 efbe 06d2 e1bd
00000080: 37c6 e9bc adc0 893e fd68 f2bd dab0 1b3e

bias f4 [12]
0.07248162 -0.59240115 0.17515235 0.3306008 -0.051640633 0.23405534 0.5901881 0.39798695
-0.51023054 -0.012562193 -0.3163929 0.04642516
00000000: 3e71 943d 9aa7 17bf 235b 333e 8244 a93e
00000010: 2185 53bd 34ac 6f3e 9116 173f f2c4 cb3e
00000020: 789e 02bf a8d1 4dbc 40fe a1be 4f28 3e3d

weight f4 [12]
0.91695267 0.9337867 1.0243608 1.013576 0.9901401 1.0642053 1.0335562 0.978343
0.99581033 1.0796247 1.0210004 0.95263165
00000000: 69bd 6a3f a50c 6f3f 411e 833f dcbc 813f
00000010: d279 7d3f e137 883f 924b 843f b074 7a3f
00000020: 6ded 7e3f 2431 8a3f 24b0 823f abdf 733f

bias f4 [12]
-0.052346412 -0.00089547766 -0.033092216 -0.04565768 0.03678911 -0.031141896 -0.033105202 0.020944834
-0.0021480687 -0.029346162 0.013169659 0.039606746
00000000: 3169 56bd 7dbe 6aba b48b 07bd 8c03 3bbd
00000010: 2eb0 163d 4a1d ffbc 5299 07bd 8094 ab3c
00000020: 9dc6 0cbb 5d67 f0bc 8ec5 573c af3a 223d

running_mean f4 [12]
0.031662714 -0.1882496 0.082951404 0.50804305 -0.02066231 0.23601986 0.5009208 0.23192462
-0.17761996 -0.057837512 -0.14193165 0.077277645
00000000: c3b0 013d 81c4 40be 6de2 a93d 1c0f 023f
00000010: 0144 a9bc 31af 713e 583c 003f a67d 6d3e
00000020: 02e2 35be 07e7 6cbd 8856 11be be43 9e3d

running_var f4 [12]
0.0013297371 0.02990928 0.022740422 0.6870397 0.023332221 0.499092 0.15736014 0.0021981392
0.058385246 0.0019760567 0.0010812621 0.17303897
00000000: 934a ae3a 4e04 f53c 1f4a ba3c d5e1 2f3f
00000010: 3723 bf3c fd88 ff3e 0423 213e a80e 103b
00000020: 5e25 6f3d bb80 013b 23b9 8d3a 2131 313e

weight f4 [12, 1, 1, 3]
-0.2735404 -0.24894036 0.2955342 -0.4942708 0.40117818 -0.28922597 -0.17252347 -0.516791
-0.231463 -0.20293224 -0.17028928 0.43835646 0.000103291524 -0.111815594 0.5329474 -0.19561411
-0.31698418 0.05036808 -0.5918611 -0.38811955 0.42456162 0.1834702 0.342044 -0.3276029
0.32124394 0.6012001 0.3332876 -0.14133792 -0.2578904 -0.3748374 0.3219224 -0.49115163
-0.28794193 0.4934218 0.04351168 -0.2963887
00000000: 7d0d 8cbe 39ea 7ebe 4250 973e 1011 fdbe
00000010: 3a67 cd3e 6d15 94be fea9 30be 6a4c 04bf
00000020: a304 6dbe 78cd 4fbe 5060 2ebe 4270 e03e
00000030: 379e d838 93ff e4bd 3e6f 083f 114f 48be
00000040: c04b a2be c34e 4e3d 3684 17bf 9bb7 c6be
00000050: 2460 d93e 9ddf 3b3e 6420 af3e 91bb a7be
00000060: 167a a43e 40e8 193f aca4 aa3e e3ba 10be
00000070: 360a 84be b0ea bfbe 03d3 a43e 3a78 fbbe
00000080: 206d 93be c8a1 fc3e 4e39 323d 42c0 97be

weight f4 [12]
0.9984989 0.96119744 1.022966 1.0112681 1.0076154 1.0008394 1.0085741 0.92906344
1.0318391 1.0181754 0.9727802 1.0322822
00000000: a09d 7f3f 0911 763f 8df0 823f 3c71 813f
00000010: 8bf9 803f 811b 803f f518 813f 1ad7 6d3f
00000020: 4e13 843f 9253 823f 2008 793f d321 843f

bias f4 [12]
-0.05988239 -0.025521789 -0.015348944 0.0015914507 -0.00873204 0.023344439 -0.0023084888 0.0048549296
-0.025401182 -0.028032806 0.024990736 -0.020261342
00000000: 3d47 75bd 1213 d1bc 237a 7bbc 3998 d03a
00000010: d510 0fbc d63c bf3c 044a 17bb 1a16 9f3b
00000020: 2416 d0bc 0ea5 e5bc 5fb9 cc3c 1dfb a5bc

running_mean f4 [12]
0.017668024 0.014537713 0.040228553 0.004903306 0.010270028 0.023441486 0.034175415 0.009893336
0.025434403 0.064857416 0.036502894 0.013021776
00000000: 88bc 903c 962f 6e3c b2c6 243d e9ab a03b
00000010: 9f43 283c 5c08 c03c 85fb 0b3d a917 223c
00000020: cf5b d03c f7d3 843d 0f84 153d 4a59 553c

running_var f4 [12]
0.038805425 0.013185064 0.07276809 0.02319121 0.007949161 0.0039962973 0.0105902925 0.0054954872
0.26163363 0.12870765 0.1175881 0.028215012
00000000: 70f2 1e3d 2b06 583c 7007 953d 7efb bd3c
00000010: 333d 023c 5ff3 823b e882 2d3c 7d13 b43b
00000020: d8f4 853e f0cb 033e 08d2 f03d 2b23 e73c

weight f4 [12, 12, 1, 1]
0.10590633 -0.12313152 0.24329486 0.07701276 -0.27064812 -0.26470417 -0.039321173 0.038962584
-0.08473941 0.21585497 -0.079654336 -0.1600839 0.08286528 -0.09328043 -0.036179338 0.16167751
-0.23063776 0.023700306 0.22807619 0.035883475 -0.076287284 0.15472534 -0.13604139 0.0151995495
-0.01651691 0.1984498 0.06816607 -0.13113073 -0.06751002 -0.018667651 -0.2540923 -0.07192909
0.0009932681 -0.083493605 -0.1357921 0.17611535 0.034328207 -0.27203444 -0.1996097 0.23438537
0.13214362 0.20401406 -0.0126208 -0.0020892404 0.2415649 -0.13097836 -0.09565205 0.065057896
0.038027115 0.13585311 -0.034593463 -0.21582621 -0.09273241 -0.10209612 0.007420972 0.025261361
-0.27143833 -0.06152331 0.114988975 -0.15500039 0.04365135 0.1376806 0.29402277 0.12720862
0.015925774 -0.17919506 0.10631417 0.109271586 0.0972876 0.031079367 -0.204914 -0.0012895362
0.19626363 0.19620484 0.2566299 0.10475079 0.22801009 0.06879818 0.10659692 0.26079878
0.049318146 0.049219653 0.19661932 0.020843139 -0.023131143 -0.28264165 -0.28737625 0.033491332
-0.08368696 0.14580014 0.19097492 0.14461641 -0.22401398 0.18395704 -0.19735746 -0.23397502
-0.05496718 0.18006544 -0.26987076 -0.01294792 -0.27576876 -0.20012434 -0.21618512 -0.20000322
-0.22128536 0.17618173 -0.08135688 -0.03063885 0.15058984 0.02817503 -0.24174128 -0.22062813
0.23998488 0.09819651 0.12673415 0.026927156 -0.038710482 0.31107277 -0.07726193 0.20926705
-0.067765355 0.15839961 -0.061532546 -0.23279385 -0.22706296 0.08425381 -0.11456539 -0.03775326
-0.18936948 0.12410164 -0.15773536 -0.09499306 -0.2932778 0.06603548 0.2409153 -0.22994927
-0.03295477 0.027984645 -0.29223552 0.09375042 -0.22694315 -0.16309874 0.24079673 0.29548842
00000000: 6be5 d83d 612c fcbd 4a22 793e deb8 9d3d
00000010: 6492 8abe 4e87 87be 3d0f 21bd 3b97 1f3d
00000020: db8b adbd 1609 5d3e d021 a3bd 09ed 23be
00000030: 46b5 a93d cf09 bfbd c930 14bd ca8e 253e
00000040: 4e2c 6cbe 2527 c23c ce8c 693e 8dfa 123d
00000050: 823c 9cbd 5270 1e3e 6f4e 0bbe 8807 793c
00000060: 794e 87bc 6d36 4b3e a79a 8b3d 2247 06be
00000070: b242 8abd e7ec 98bc 6318 82be 8f4f 93bd
00000080: 8c30 823a b2fe aabd 160d 0bbe 9557 343e
00000090: bc9b 0c3d 1948 8bbe 7c66 4cbe b802 703e
000000a0: a850 073e 10e9 503e 79c7 4ebc a3eb 08bb
000000b0: ca5c 773e 311f 06be 39e5 c3bd 133d 853d
000000c0: 52c2 1b3d 141d 0b3e e0b1 0dbd 8c01 5dbe
000000d0: 7dea bdbd c517 d1bd a02b f33b eaf0 ce3c
000000e0: f7f9 8abe deff 7bbd 577f eb3d 6cb8 1ebe
000000f0: c2cb 323d 25fc 0c3e 278a 963e fa42 023e
00000100: c576 823c e97e 37be 3ebb d93d c8c9 df3d
00000110: b93e c73d 289a fe3c fad4 51be a805 a9ba
00000120: 55f9 483e ece9 483e ff64 833e 9587 d63d
00000130: 7a7b 693e 0fe6 8c3d 7c4f da3d 6b87 853e
00000140: d301 4a3d 8c9a 493d 9356 493e 3bbf aa3c
00000150: 867d bdbc 68b6 90be fb22 93be 352e 093d
00000160: 1264 abbd a24c 153e ee8e 433e 5316 143e
00000170: ec63 65be 3c5f 3c3e 1318 4abe 2697 6fbe
00000180: 4425 61bd 1363 383e 802c 8abe 8323 54bc
00000190: 9031 8dbe 65ed 4cbe a25f 5dbe a5cd 4cbe
000001a0: a198 62be fc68 343e 709e a6bd 53fe fabc
000001b0: 3934 1a3e 52cf e63c 078b 77be 57ec 61be
000001c0: 99be 753e 401b c93d 99c6 013e 5796 dc3c
000001d0: e28e 1ebd ee44 9f3e 813b 9ebd 1a4a 563e
000001e0: 90c8 8abd 8233 223e 8d09 7cbd 8361 6ebe
000001f0: 3183 68be 438d ac3d 42a1 eabd 2aa3 1abd
00000200: 13ea 41be 0029 fe3d 6185 21be b98b c2bd
00000210: 8228 96be 9c3d 873d 80b2 763e d277 6bbe
00000220: 95fb 06bd 0e40 e53c e59f 95be 3800 c03d
00000230: c963 68be 5b03 27be 6b93 763e 424a 973e

bias f4 [12]
-0.22811796 0.23202845 -0.19215852 0.11688476 0.33346912 0.18403922 0.0010930303 -0.25224233
-0.17441298 -0.17718244 -0.031384364 -0.17497237
00000000: c197 69be de98 6d3e 34c5 44be 4761 ef3d
00000010: 77bc aa3e c774 3c3e 0344 8f3a e825 81be
00000020: 5199 32be 506f 35be e48c 00bd f52b 33be

weight f4 [18, 12, 1, 1]
-0.06779279 -0.15687211 -0.17587872 -0.17309666 -0.1780876 0.1615647 0.03294235 -0.17872055
-0.009846093 -0.23124367 0.24002017 -0.040921897 -0.2386579 0.02229456 -0.12611559 0.00086288457
-0.13337298 -0.26116812 0.12430351 -0.052463736 -0.2322595 0.018137082 0.007953113 0.092085235
-0.034090344 -0.2593959 -0.09228677 -0.19853133 0.28383517 0.21036078 -0.015148541 -0.030238312
-0.07935215 0.035637073 -0.18347111 0.20651539 0.22207354 -0.29511857 -0.040742613 0.09931709
0.09860895 -0.09509477 0.0479502 -0.24733414 -0.19456449 0.032659248 0.14303823 0.13805968
0.009092237 -0.02026715 -0.14613585 0.13234253 0.094304524 0.03466997 0.15188682 0.11695788
0.199736 0.2741587 0.15250832 -0.01736766 0.103309534 0.119032875 -0.07884821 -0.061512124
-0.015354909 -0.28906634 0.20440447 0.14127842 -0.25736117 0.19369897 0.29576468 0.11145529
0.28132012 -0.07904482 0.23328795 0.14000215 0.22287863 0.28059995 -0.28408253 0.087308146
-0.111708455 0.124170154 0.09297226 0.13645321 0.010334297 -0.15173516 -0.03296898 -0.07382433
-0.09883596 -0.29671124 0.1369305 0.19930474 -0.05801773 -0.24664998 -0.111568175 -0.33043295
-0.031596974 -0.2572885 -0.2102375 -0.20445007 -0.0868118 0.06776795 -0.25764623 0.2928934
0.047886785 0.2694638 0.2620829 0.17148094 -0.31130168 0.33352464 -0.10455678 0.033863723
0.14645873 0.03514041 -0.013206082 0.26266995 -0.037811376 -0.11887192 -0.13986681 0.22881849
-0.012911508 0.14559217 0.12760206 -0.089841485 -0.22673605 0.014237472 0.09822897 0.13916744
-0.13920768 -0.2898108 0.26503885 0.11307358 -0.024123842 0.20143104 -0.27169603 -0.07254713
0.12606326 -0.08066908 -0.008338862 -0.18601185 0.12317622 -0.2114771 0.076765396 -0.19169986
-0.05863372 -0.13349776 0.1272999 0.12501256 -0.2809684 -0.2854846 0.21938574 -0.15616931
0.0767645 -0.22878729 0.12345177 -0.1879626 -0.1737044 -0.008624887 0.26378623 -0.036795978
-0.21664546 -0.09689654 -0.08423913 0.25540346 -0.13541292 -0.2211193 -0.12827922 0.23096442
0.018078046 -0.18670027 -0.055943344 -0.08129928 -0.33489057 -0.06217729 -0.13477965 -0.27848756
-0.04392974 0.17561208 0.14273468 0.12976702 -0.18177266 -0.19540149 0.13329287 -0.13232316
0.26879394 0.2274299 0.016240934 0.14790328 -0.025766462 0.1261352 -0.0022061132 0.2053849
-0.19712259 -0.16684166 0.12521313 0.033977482 0.0058713695 0.23944096 -0.14066818 -0.063919164
-0.067414306 -0.13083856 -0.10470671 -0.25019157 -0.14692238 -0.11998498 -0.07798215 -0.030178672
-0.01669099 -0.1476933 -0.26740292 0.16094312 0.022220531 -0.28210506 -0.23858689 0.036511797
00000000: f2d6 8abd 15a3 20be 8d19 34be 4040 31be
00000010: 995c 36be 3771 253e 8fee 063d 8502 37be
00000020: 8251 21bc 24cb 6cbe d9c7 753e b89d 27bd
00000030: bd62 74be 15a3 b63c 7224 01be 3433 623a
00000040: ed92 08be d4b7 85be d792 fe3d 37e4 56bd
00000050: 6fd5 6dbe 3894 943c c64d 023c 2f97 bc3d
00000060: 51a2 0bbd 8acf 84be d900 bdbd cc4b 4bbe
00000070: d852 913e d168 573e 9631 78bc 56b6 f7bc
00000080: 6183 a2bd 2ef8 113d dadf 3bbe c578 533e
00000090: 3f67 633e c819 97be bae1 26bd c266 cb3d
000000a0: 7df3 c93d 0cc1 c2bd 6e67 443d 2945 7dbe
000000b0: ea3b 47be b4c5 053d 9d78 123e 845f 0d3e
000000c0: 9bf7 143c 4b07 a6bc a3a4 15be cd84 073e
000000d0: bb22 c13d 1902 0e3d 3888 1b3e 9d87 ef3d
000000e0: 9887 4c3e 875e 8c3e 242b 1c3e 9f46 8ebc
000000f0: f393 d33d 82c7 f33d 2c7b a1bd 23f4 7bbd
00000100: 2893 7bbc 8100 94be 684f 513e 4aab 103e
00000110: d8c4 83be 0659 463e 786e 973e ac42 e43d
00000120: 3109 903e 40e2 a1bd 09e3 6e3e b95c 0f3e
00000130: 4c3a 643e ccaa 8f3e 4473 91be 9dce b23d
00000140: 67c7 e4bd ec4c fe3d 3e68 be3d 64ba 0b3e
00000150: 2f51 293c 7660 1bbe 7b0a 07bd 3631 97bd
00000160: 826a cabd 89ea 97be 8237 0c3e 8b16 4c3e
00000170: 00a4 6dbd d091 7cbe db7d e4bd 822e a9be
00000180: d46b 01bd 51bb 83be 8048 57be 5c5b 51be
00000190: 63ca b1bd ecc9 8a3d 35ea 83be 20f6 953e
000001a0: ef24 443d 29f7 893e bb2f 863e b398 2f3e
000001b0: ef62 9fbe bec3 aa3e dd21 d6bd b0b4 0a3d
000001c0: 47f9 153e 64ef 0f3d 535e 58bc ad7c 863e
000001d0: 1ae0 1abd 1f73 f3bd 3f39 0fbe 654f 6a3e
000001e0: ca8a 53bc 1d16 153e 1daa 023e d0fe b7bd
000001f0: 7f2d 68be 4944 693c 452c c93d e981 0e3e
00000200: 758c 0ebe 1562 94be 2cb3 873e 1f93 e73d
00000210: 5d9f c5bc f043 4e3e be1b 8bbe 9793 94bd
00000220: ba16 013e d535 a5bd b99f 08bc e479 3ebe
00000230: d043 fc3d 748d 58be 2d37 9d3d f84c 44be
00000240: e929 70bd a3b3 08be e85a 023e 4b03 003e
00000250: 17db 8fbe 0a2b 92be a8a6 603e d9ea 1fbe
00000260: b536 9d3d 3747 6abe 48d4 fc3d 4579 40be
00000270: 91df 31be 664f 0dbc fd0e 873e 61b7 16bd
00000280: 4fd8 5dbe b171 c6bd 9185 acbd 3ec4 823e
00000290: afa9 0abe 196d 62be a15b 03be f081 6c3e
000002a0: 6918 943c 5b2e 3fbe d924 65bd 3d80 a6bd
000002b0: c776 abbe 9dad 7ebd ad03 0abe ec95 8ebe
000002c0: acef 33bd a7d3 333e 0a29 123e a5e1 043e
000002d0: 9d22 3abe 5417 48be ed7d 083e b97f 07be
000002e0: 5c9f 893e 62e3 683e b50b 853c f573 173e
000002f0: 3014 d3bc 9629 013e 7094 10bb 6b50 523e
00000300: 81da 49be 8ad8 2abe df37 003e f92b 0b3d
00000310: 9e64 c03b 0330 753e 520b 10be 0de8 82bd
00000320: 8310 8abd 8bfa 05be 7970 d6bd 1c19 80be
00000330: d272 16be afba f5bd 1bb5 9fbd 4339 f7bc
00000340: 8bbb 88bc ea3c 17be 09e9 88be 46ce 243e
00000350: d507 b63c 1370 90be 1f50 74be 658d 153d

bias f4 [18]
0.018604094 0.0066457065 -0.029124005 0.20009491 0.21299946 -0.07127675 0.19496009 0.19101343
-0.1608413 -0.0023049642 0.041871723 -0.16028613 0.034802575 -0.24093102 0.23592071 -0.01626685
0.3035355 0.16905849
00000000: 9d67 983c 3ac4 d93b 7795 eebc aee5 4c3e
00000010: 881c 5a3e 8bf9 91bd 9ea3 473e 0699 433e
00000020: 95b3 24be e20e 17bb af81 2b3d 0c22 24be
00000030: 258d 0e3d 9fb6 76be 3395 713e 0f42 85bc
00000040: 0169 9b3e ab1d 2d3e

weight f4 [18]
0.9860052 0.9524114 1.1031208 1.0114347 1.075838 1.026944 1.0725809 0.9253002
0.94139916 1.0205363 1.0227902 1.0227144 0.9275841 1.0352322 1.0395445 1.0150647
0.9645327 0.9219212
00000000: d66a 7c3f 3cd1 733f 1033 8d3f b176 813f
00000010: 0fb5 893f e772 833f 554a 893f 79e0 6c3f
00000020: 89ff 703f efa0 823f caea 823f 4ee8 823f
00000030: 2776 6d3f 7d82 843f cb0f 853f a4ed 813f
00000040: 9deb 763f 0703 6c3f

bias f4 [18]
0.06373531 0.0061148326 -0.02768159 0.033115234 0.04983608 0.00879275 -0.09992994 0.09925368
0.081379995 0.027622651 0.0021932852 0.060236424 -0.0063743135 -0.023916418 0.0126046445 0.038782552
0.059184402 0.0770611
00000000: a987 823d ef5e c83b 80c4 e2bc d7a3 073d
00000010: eb20 4c3d 770f 103c 12a8 ccbd 8345 cb3d
00000020: 8eaa a63d e648 e23c 38bd 0f3b 78ba 763d
00000030: 9edf d0bb 5dec c3bc b683 4e3c 74da 1e3d
00000040: 586b 723d 36d2 9d3d

running_mean f4 [18]
-0.1893355 -0.18452168 -0.038531184 0.271935 0.5697728 0.08050316 0.6188983 -0.29567337
-0.19355616 0.1843012 0.04345029 -0.24917902 -0.24279107 -0.47349644 -0.0045021274 0.19144818
0.12361778 -0.24215256
00000000: 2ae1 41be 40f3 3cbe e0d2 1dbd 103b 8b3e
00000010: a1dc 113f d7de a43d 1e70 1e3f 8062 97be
00000020: 9633 46be 74b9 3c3e eef8 313d c928 7fbe
00000030: 399e 78be 206e f2be 9586 93bb fe0a 443e
00000040: 522b fd3d d7f6 77be

running_var f4 [18]
0.45195493 0.90209264 0.7607606 0.2758764 0.7679347 0.35653213 1.8447878 2.4638326
0.7427917 0.45142242 0.48870033 0.7530692 1.106181 0.56919456 0.68913656 1.2652684
0.46813834 1.5339373
00000000: a366 e73e 8bef 663f 35c1 423f ac3f 8d3e
00000010: 5e97 443f 618b b63e 0222 ec3f 6faf 1d40
00000020: 9927 3e3f d720 e73e ee36 fa3e 25c9 403f
00000030: 5797 8d3f bcb6 113f 416b 303f 51f4 a13f
00000040: d4af ef3e 0f58 c43f

weight f4 [18, 1, 3, 1]
0.47777307 0.014889841 0.097505644 -0.5129487 -0.3675048 -0.21888942 0.0026914661 -0.26251626
0.6215206 -0.56561357 -0.3780759 0.5299271 0.13960682 0.31636956 -0.47880384 -0.055603176
0.247114 -0.29083207 -0.11975865 -0.0517732 0.23434278 0.5225673 -0.21339452 -0.10396856
0.4056153 0.36697394 0.36413777 0.19084218 -0.39015982 0.05089539 0.17210133 -0.16754127
-0.5960412 -0.33389786 -0.50587535 -0.16918583 -0.24539761 -0.038418684 -0.06612517 0.14873423
0.13811462 0.15384845 0.15825985 0.53521776 0.28190508 -0.1048728 -0.50363445 0.38534206
0.54086536 0.24169543 -0.35085315 0.3028297 0.39621678 0.17379767
00000000: ac9e f43e 85f4 733c 0ab1 c73d 9b50 03bf
00000010: 9729 bcbe 8c24 60be 4f63 303b 8868 86be
00000020: f91b 1f3f 0dcc 10bf 2a93 c1be 4da9 073f
00000030: 17f5 0e3e 31fb a13e c725 f5be 28c0 63bd
00000040: 740b 7d3e f1e7 94be 0644 f5bd 2310 54bd
00000050: 8ef7 6f3e f8c6 053f 1884 5abe 78ed d4bd
00000060: cfac cf3e 02e4 bb3e 4470 ba3e 226c 433e
00000070: 07c3 c7be af77 503d 553b 303e f08f 2bbe
00000080: 2896 18bf a9f4 aabe 0c81 01bf 0d3f 2dbe
00000090: 8349 7bbe e95c 1dbd a26c 87bd c94d 183e
000000a0: eb6d 0d3e 738a 1d3e df0e 223e 0804 093f
000000b0: dd55 903e 8dc7 d6bd 30ee 00bf 8e4b c53e
000000c0: 2776 0a3f 027f 773e 06a3 b3be 7f0c 9b3e
000000d0: eddc ca3e 04f8 313e

bias f4 [18]
0.40971068 0.026162602 0.39977807 -0.17712158 0.23565394 0.094356686 0.5302659 -0.33704516
0.541957 0.3299629 0.58998597 0.46842298 0.17396757 0.15632282 -0.41332677 0.2133969
0.22704394 -0.24816115
00000000: 99c5 d13e f452 d63c b6af cc3e 5c5f 35be
00000010: 444f 713e 143e c13d 82bf 073f 2f91 acbe
00000020: b2bd 0a3f e6f0 a83e 5209 173f 23d5 ef3e
00000030: 8e24 323e 1713 203e 919f d3be b884 5a3e
00000040: 357e 683e f51d 7ebe

weight f4 [18]
1.0520251 0.9771466 1.0305339 0.984004 1.02082 0.9808968 1.0122992 1.0423466
1.1022105 0.97417176 0.9385611 1.1238879 0.9463752 0.9712458 1.040159 0.9045598
0.9454889 1.0123936
00000000: c2a8 863f 4826 7a3f 89e8 833f b0e7 7b3f
00000010: 3baa 823f 0d1c 7b3f 0593 813f 9d6b 853f
00000020: 3c15 8d3f 5263 793f 8a45 703f 8fdb 8f3f
00000030: a545 723f 91a3 783f ee23 853f 3b91 673f
00000040: 900b 723f 1d96 813f

bias f4 [18]
-0.026063684 0.018348232 0.005299688 0.040073827 0.06918131 0.013317777 -0.037504937 0.032793444
-0.04717451 0.005530609 -0.02708182 0.06923308 0.044192884 0.04016646 0.025964743 -0.052991744
0.0039414535 0.07909402
00000000: 8283 d5bc 084f 963c 01a9 ad3b 7424 243d
00000010: eeae 8d3d ce32 5a3c c79e 19bd 6b52 063d
00000020: 0f3a 41bd 1c3a b53b b1da ddbc 13ca 8d3d
00000030: 9903 353d 9685 243d 03b4 d43c df0d 59bd
00000040: 4f27 813b 0cfc a13d

running_mean f4 [18]
0.31448397 -0.05241848 0.2836178 -0.09192522 0.14322996 0.051400132 0.34193134 -0.12554164
0.4902572 0.18163274 0.3450862 0.18283431 0.065647036 0.10929734 -0.11677457 0.108468495
0.18426596 -0.034383714
00000000: 0b04 a13e c3b4 56bd 5a36 913e 4a43 bcbd
00000010: e0aa 123e f288 523d a011 af3e fd8d 00be
00000020: fe02 fb3e effd 393e 23af b03e eb38 3b3e
00000030: f471 863d 49d7 df3d 8127 efbd bb24 de3d
00000040: 37b0 3c3e f0d5 0cbd

running_var f4 [18]
0.048836716 0.0010564774 0.1411351 0.034021247 0.03635302 0.0059710476 0.024125693 0.00020689858
0.20072687 0.006511664 0.015017657 0.0045377114 0.00048427944 0.019154537 0.008593322 0.00987143
0.043132003 0.0011536939
00000000: 0209 483d 8079 8a3a b885 103e dd59 0b3d
00000010: e8e6 143d c7a8 c33b 3fa3 c53c eaf2 5839
00000020: 588b 4d3e cc5f d53b 9e0c 763c 15b1 943b
00000030: e3e6 fd39 fae9 9c3c 01cb 0c3c c7bb 213c
00000040: 2fab 303d 8b37 973a

weight f4 [18, 1, 1, 3]
0.14175807 -0.2258168 -0.30154002 -0.51716745 -0.21850312 -0.42112485 0.44777802 0.28450876
-0.29671705 -0.41804445 -0.16864686 0.095448986 0.117106475 0.2567157 0.44008058 0.19091134
-0.4206092 0.45638624 -0.08913313 0.116432786 -0.45437652 0.6013251 -0.14953898 -0.3583635
-0.07858581 -0.0051927436 -0.4673433 0.3450925 0.10226346 -0.12957232 -0.22953825 0.02500276
0.15770908 0.31527355 -0.29572102 0.24320394 0.18912604 8.3209234e-05 -0.24741563 -0.39685288
-0.22357738 -0.20266075 0.2153118 0.21897665 0.21151301 -0.35749063 -0.0548424 -0.32809028
-0.16620952 -0.24372634 -0.22046492 0.40742874 0.48732987 -0.17609778
00000000: 0729 113e 853c 67be 7463 9abe 1665 04bf
00000010: 48bf 5fbe ad9d d7be 2943 e53e 22ab 913e
00000020: 4ceb 97be ec09 d6be c3b1 2cbe c27a c33d
00000030: 85d5 ef3d 3d70 833e 3e52 e13e 437e 433e
00000040: 175a d7be 75ab e93e 6e8b b6bd 5074 ee3d
00000050: 0aa4 e8be 71f0 193f bf20 19be 6c7b b7be
00000060: 99f1 a0bd e427 aabb 9f47 efbe f7af b03e
00000070: 816f d13d 9bae 04be 130c 6bbe 97d2 cc3c
00000080: 7d7e 213e 896b a13e bf68 97be 740a 793e
00000090: 42aa 413e 9e80 ae38 865a 7dbe 4d30 cbbe
000000a0: 78f1 64be 4d86 4fbe b27a 5c3e 6a3b 603e
000000b0: de96 583e 0309 b7be 6da2 60bd 73fb a7be
000000c0: d432 2abe 6693 79be 8ec1 61be 809a d03e
000000d0: 4d83 f93e fa52 34be

weight f4 [18]
0.98421085 0.9645477 1.0365343 0.9808176 1.0472056 1.0298313 0.9468444 0.89393806
0.970903 0.90878755 1.0322348 0.94495606 0.94311607 0.9720721 0.953858 1.0155578
0.9742446 0.9647517
00000000: 3ef5 7b3f 99ec 763f 28ad 843f dd16 7b3f
00000010: d50a 863f 83d1 833f 6564 723f 20d9 643f
00000020: 198d 783f 4da6 683f 4520 843f a4e8 713f
00000030: 0e70 713f b8d9 783f 0a30 743f ccfd 813f
00000040: 1868 793f f8f9 763f

bias f4 [18]
-0.005095877 -0.067376845 -0.013801354 -0.01805274 0.007824477 -0.009685687 -0.0105969 -0.03950955
0.015085426 0.027696744 0.008783215 -0.056756776 0.041571774 0.0002108673 -0.0068377857 0.0072805383
-0.015805744 -0.06463617
00000000: 51fb a6bb dffc 89bd 131f 62bc 57e3 93bc
00000010: 3c32 003c b7b0 1ebc 9f9e 2dbc c4d4 21bd
00000020: dd28 773c 48e4 e23c 79e7 0f3c cb79 68bd
00000030: 2a47 2a3d 431c 5d39 810f e0bb 9591 ee3b
00000040: 0c7b 81bc f85f 84bd

running_mean f4 [18]
0.014057918 0.12129765 0.016693357 -0.0048879418 0.040521514 0.0050311736 0.011713432 0.0030820135
0.031711448 0.007234438 0.0022931139 0.022717237 0.004265574 0.0105033815 0.02168296 0.032472227
0.003924971 0.09907587
00000000: 2f53 663c e76a f83d 82c0 883c 072b a0bb
00000010: e3f9 253d 8bdc a43b b2e9 3f3c 9bfb 493b
00000020: dde3 013d dd0e ed3b 1148 163b 8019 ba3c
00000030: 3ac6 8b3b 6016 2c3c 77a0 b13c 9901 053d
00000040: 0b9d 803b 4ae8 ca3d

running_var f4 [18]
0.003328516 0.10574286 0.0657618 0.0013763777 0.078450955 0.009074281 0.0012072551 0.0028773716
0.00486268 0.0062303604 0.0019950361 0.013174213 0.010184566 0.0035047983 0.048425015 0.025609335
0.0016547807 0.028708467
00000000: 3b23 5a3b b68f d83d 1fae 863d 9267 b43a
00000010: e5aa a03d 4bac 143c c23c 9e3a 4992 3c3b
00000020: 1e57 9f3b 0d28 cc3b 27bf 023b a7d8 573c
00000030: 2add 263c c2b0 653b 4f59 463d abca d13c
00000040: 3ae5 d83a 052e eb3c
